…
_______________________________________________________________________________________________________________________________
Layer (type)                             Output Shape                Param #         Connected to                              
===============================================================================================================================
input_1 (InputLayer)                     [(None, 16, 32, 32, 1)]     0                                                         
_______________________________________________________________________________________________________________________________
conv3d (Conv3D)                          (None, 16, 32, 32, 16)      448             input_1[0][0]                             
_______________________________________________________________________________________________________________________________
group_normalization (GroupNormalization) (None, 16, 32, 32, 16)      32              conv3d[0][0]                              
_______________________________________________________________________________________________________________________________
conv3d_1 (Conv3D)                        (None, 16, 32, 32, 16)      6928            group_normalization[0][0]                 
_______________________________________________________________________________________________________________________________
group_normalization_1 (GroupNormalizatio (None, 16, 32, 32, 16)      32              conv3d_1[0][0]                            
_______________________________________________________________________________________________________________________________
max_pooling3d (MaxPooling3D)             (None, 8, 16, 16, 16)       0               group_normalization_1[0][0]               
_______________________________________________________________________________________________________________________________
conv3d_2 (Conv3D)                        (None, 8, 16, 16, 32)       13856           max_pooling3d[0][0]                       
_______________________________________________________________________________________________________________________________
group_normalization_2 (GroupNormalizatio (None, 8, 16, 16, 32)       64              conv3d_2[0][0]                            
_______________________________________________________________________________________________________________________________
conv3d_3 (Conv3D)                        (None, 8, 16, 16, 32)       27680           group_normalization_2[0][0]               
_______________________________________________________________________________________________________________________________
group_normalization_3 (GroupNormalizatio (None, 8, 16, 16, 32)       64              conv3d_3[0][0]                            
_______________________________________________________________________________________________________________________________
max_pooling3d_1 (MaxPooling3D)           (None, 4, 8, 8, 32)         0               group_normalization_3[0][0]               
_______________________________________________________________________________________________________________________________
conv3d_4 (Conv3D)                        (None, 4, 8, 8, 64)         55360           max_pooling3d_1[0][0]                     
_______________________________________________________________________________________________________________________________
group_normalization_4 (GroupNormalizatio (None, 4, 8, 8, 64)         128             conv3d_4[0][0]                            
_______________________________________________________________________________________________________________________________
conv3d_5 (Conv3D)                        (None, 4, 8, 8, 64)         110656          group_normalization_4[0][0]               
_______________________________________________________________________________________________________________________________
group_normalization_5 (GroupNormalizatio (None, 4, 8, 8, 64)         128             conv3d_5[0][0]                            
_______________________________________________________________________________________________________________________________
max_pooling3d_2 (MaxPooling3D)           (None, 2, 4, 4, 64)         0               group_normalization_5[0][0]               
_______________________________________________________________________________________________________________________________
conv3d_6 (Conv3D)                        (None, 2, 4, 4, 128)        221312          max_pooling3d_2[0][0]                     
_______________________________________________________________________________________________________________________________
group_normalization_6 (GroupNormalizatio (None, 2, 4, 4, 128)        256             conv3d_6[0][0]                            
_______________________________________________________________________________________________________________________________
conv3d_7 (Conv3D)                        (None, 2, 4, 4, 128)        442496          group_normalization_6[0][0]               
_______________________________________________________________________________________________________________________________
group_normalization_7 (GroupNormalizatio (None, 2, 4, 4, 128)        256             conv3d_7[0][0]                            
_______________________________________________________________________________________________________________________________
up_sampling3d (UpSampling3D)             (None, 4, 8, 8, 128)        0               group_normalization_7[0][0]               
_______________________________________________________________________________________________________________________________
conv3d_flipout (Conv3DFlipout)           (None, 4, 8, 8, 64)         131136          up_sampling3d[0][0]                       
_______________________________________________________________________________________________________________________________
group_normalization_8 (GroupNormalizatio (None, 4, 8, 8, 64)         128             conv3d_flipout[0][0]                      
_______________________________________________________________________________________________________________________________
concatenate (Concatenate)                (None, 4, 8, 8, 128)        0               group_normalization_5[0][0]               
                                                                                     group_normalization_8[0][0]               
_______________________________________________________________________________________________________________________________
group_normalization_9 (GroupNormalizatio (None, 4, 8, 8, 128)        256             concatenate[0][0]                         
_______________________________________________________________________________________________________________________________
conv3d_flipout_1 (Conv3DFlipout)         (None, 4, 8, 8, 64)         442432          group_normalization_9[0][0]               
_______________________________________________________________________________________________________________________________
group_normalization_10 (GroupNormalizati (None, 4, 8, 8, 64)         128             conv3d_flipout_1[0][0]                    
_______________________________________________________________________________________________________________________________
conv3d_flipout_2 (Conv3DFlipout)         (None, 4, 8, 8, 64)         221248          group_normalization_10[0][0]              
_______________________________________________________________________________________________________________________________
group_normalization_11 (GroupNormalizati (None, 4, 8, 8, 64)         128             conv3d_flipout_2[0][0]                    
_______________________________________________________________________________________________________________________________
up_sampling3d_1 (UpSampling3D)           (None, 8, 16, 16, 64)       0               group_normalization_11[0][0]              
_______________________________________________________________________________________________________________________________
conv3d_flipout_3 (Conv3DFlipout)         (None, 8, 16, 16, 32)       32800           up_sampling3d_1[0][0]                     
_______________________________________________________________________________________________________________________________
group_normalization_12 (GroupNormalizati (None, 8, 16, 16, 32)       64              conv3d_flipout_3[0][0]                    
_______________________________________________________________________________________________________________________________
concatenate_1 (Concatenate)              (None, 8, 16, 16, 64)       0               group_normalization_3[0][0]               
                                                                                     group_normalization_12[0][0]              
_______________________________________________________________________________________________________________________________
group_normalization_13 (GroupNormalizati (None, 8, 16, 16, 64)       128             concatenate_1[0][0]                       
_______________________________________________________________________________________________________________________________
conv3d_flipout_4 (Conv3DFlipout)         (None, 8, 16, 16, 32)       110624          group_normalization_13[0][0]              
_______________________________________________________________________________________________________________________________
group_normalization_14 (GroupNormalizati (None, 8, 16, 16, 32)       64              conv3d_flipout_4[0][0]                    
_______________________________________________________________________________________________________________________________
conv3d_flipout_5 (Conv3DFlipout)         (None, 8, 16, 16, 32)       55328           group_normalization_14[0][0]              
_______________________________________________________________________________________________________________________________
group_normalization_15 (GroupNormalizati (None, 8, 16, 16, 32)       64              conv3d_flipout_5[0][0]                    
_______________________________________________________________________________________________________________________________
up_sampling3d_2 (UpSampling3D)           (None, 16, 32, 32, 32)      0               group_normalization_15[0][0]              
_______________________________________________________________________________________________________________________________
conv3d_flipout_6 (Conv3DFlipout)         (None, 16, 32, 32, 16)      8208            up_sampling3d_2[0][0]                     
_______________________________________________________________________________________________________________________________
group_normalization_16 (GroupNormalizati (None, 16, 32, 32, 16)      32              conv3d_flipout_6[0][0]                    
_______________________________________________________________________________________________________________________________
concatenate_2 (Concatenate)              (None, 16, 32, 32, 32)      0               group_normalization_1[0][0]               
                                                                                     group_normalization_16[0][0]              
_______________________________________________________________________________________________________________________________
group_normalization_17 (GroupNormalizati (None, 16, 32, 32, 32)      64              concatenate_2[0][0]                       
_______________________________________________________________________________________________________________________________
conv3d_flipout_7 (Conv3DFlipout)         (None, 16, 32, 32, 16)      27664           group_normalization_17[0][0]              
_______________________________________________________________________________________________________________________________
group_normalization_18 (GroupNormalizati (None, 16, 32, 32, 16)      32              conv3d_flipout_7[0][0]                    
_______________________________________________________________________________________________________________________________
conv3d_flipout_8 (Conv3DFlipout)         (None, 16, 32, 32, 16)      13840           group_normalization_18[0][0]              
_______________________________________________________________________________________________________________________________
group_normalization_19 (GroupNormalizati (None, 16, 32, 32, 16)      32              conv3d_flipout_8[0][0]                    
_______________________________________________________________________________________________________________________________
conv3d_flipout_9 (Conv3DFlipout)         (None, 16, 32, 32, 1)       865             group_normalization_19[0][0]              
_______________________________________________________________________________________________________________________________
conv3d_flipout_10 (Conv3DFlipout)        (None, 16, 32, 32, 1)       3               conv3d_flipout_9[0][0]                    
===============================================================================================================================
Total params: 1,924,964
Trainable params: 1,924,964
Non-trainable params: 0
_______________________________________________________________________________________________________________________________
<class 'float'> <class 'keras.engine.functional.Functional'> <class 'tensorflow.python.framework.ops.Tensor'>
…
